app/src/main/assets/noembed20.tflite (tflite, 18820 bytes, 3 tensors)

sequential_1/conv1d/conv1d/ExpandDims_1 f4 [32, 1, 1, 128]
000000 bb 04 19 3d d1 9a a4 bd 3e ea f4 3d 06 b5 0f bd
       0.037358027 -0.080373414 0.11958741 -0.035084747
000010 d7 ea a2 3c 8a fd 8a 3d 0c ed c5 3d 05 87 26 bd
       0.019887371 0.0678664 0.09664354 -0.04065611
000020 9a 19 11 3d ab 24 70 3d 5b 9b e7 3d 0a 7e a6 bd
       0.035424806 0.05862872 0.113089286 -0.08129509
000030 47 3b 17 3e 30 6a ce 3d 6b 94 19 be 62 f6 44 3d
       0.14768706 0.100788474 -0.14998023 0.04808653
000040 be a9 32 be 69 b4 96 3d fe 95 a7 bd 36 cb 9a bb
       -0.17447564 0.07358629 -0.081829056 -0.0047239317
000050 44 62 be 3c 45 64 e5 3d d3 de 11 3d 97 2a 36 be
       0.023240216 0.112007655 0.035612892 -0.17789684
000060 14 5c f4 bd d6 f5 61 3d 6b a7 10 3e 09 f5 5a 3d
       -0.11931625 0.055166088 0.14126365 0.05345634
000070 63 a1 ff 3d 74 53 f3 3d 79 f9 34 3e df 11 2a 3d
       0.12481954 0.11881152 0.17673291 0.04152095
000080 11 46 6b bd e6 fb 31 be 28 c2 07 3c d9 33 ca 3d
       -0.057439867 -0.17381248 0.008286037 0.098731704
000090 65 36 ed bb 90 99 95 bc 55 1d 08 be e8 c3 04 be
       -0.0072391503 -0.0182617 -0.1329244 -0.12965357
0000a0 f1 1b dc bd 9b e9 19 3b b5 ad d1 3d 4f ee 1a 3e
       -0.10747517 0.0023485187 0.1023821 0.1512997
0000b0 0f cd a6 bc ac 04 23 be 9d ad 29 3e dc 3d ce 3d
       -0.020361451 -0.15919751 0.16570134 0.100703925
0000c0 68 be 68 bd 20 bc 2a 3e 72 bd 27 3e 4f d0 19 be
       -0.05682221 0.16673326 0.16380861 -0.1502087
0000d0 d4 17 b5 bd 8c 00 ad 3d b0 f6 da bc e7 8c 15 be
       -0.088424355 0.0844737 -0.026728958 -0.14604531
0000e0 f3 46 77 bd b5 d2 23 3e 56 72 6f bd ac 58 2d be
       -0.060370397 0.15998347 -0.05845865 -0.16928357
0000f0 3d 1d 39 3d 84 1f f3 bd 30 80 1c 3e 7e 87 55 bd
       0.0451939 -0.118712455 0.15283275 -0.05213117
000100 40 6d 06 3e c2 6a 48 3e a5 ec fb bc c8 90 d9 bd
       0.13127613 0.19571975 -0.03075249 -0.10623318
000110 3a 4d fe 3d db 06 1b 3e ee 30 2d 3d df e8 15 3e
       0.124170735 0.15139334 0.04228299 0.14639615
000120 b2 a8 f0 3c 96 20 09 be 68 3a bf 3d 20 9e 34 3d
       0.029377315 -0.13391337 0.09337312 0.044096112
000130 95 f6 c9 bd 04 9e 2f 3e 98 ed 3f be e6 f4 29 3e
       -0.09861485 0.17150122 -0.18742979 0.16597328
000140 f0 0e 5c 3e f4 fd 17 bd 09 4d 31 be 3d 49 15 be
       0.21490073 -0.037107423 -0.17314543 -0.1457872
000150 50 48 d2 3d 1c ea 26 bc 9a 84 cc bc df 94 92 bd
       0.10267699 -0.010187652 -0.024965573 -0.07157301
000160 e6 7e 73 3d c4 45 34 3e ea 8c 38 be 15 38 9e 3d
       0.05944719 0.17604738 -0.18022504 0.077255405
000170 1e 9d 2f be a9 80 e6 3d a5 2d 53 3d f4 ba 8e 3c
       -0.17149779 0.11255009 0.051557202 0.01742313
000180 d1 cc 2a 3e 93 b2 c0 3d 44 ce f9 3d ae 20 d5 3d
       0.16679694 0.0940906 0.12197545 0.10406624
000190 70 01 1c be d9 5e 23 be 0f 64 36 3e 34 28 6e 3d
       -0.15234923 -0.1595415 0.17811607 0.05814381
0001a0 c5 78 b2 3d a3 4e 77 bd a1 bc d1 3d 9f a6 f7 3d
       0.08714441 -0.06037773 0.10241056 0.12092327
0001b0 fb ab 27 be b7 a6 4e bd 2d 54 22 be 7b bf 34 3d
       -0.16374199 -0.05045196 -0.15852423 0.044127923
0001c0 92 dd 03 3d a2 d2 fa 3d 6e c2 8e 3d f6 8f 05 3d
       0.032193728 0.12247206 0.06970678 0.032607995
0001d0 e8 72 93 bd 5e 71 2c bd 74 70 20 3e 06 26 9d bd
       -0.07199651 -0.042100303 0.15667897 -0.07673268
0001e0 1e 67 ae bd c8 f7 de bc a4 36 14 3d d9 d3 cd 3d
       -0.08515762 -0.02721776 0.03618492 0.10050172
0001f0 e0 b3 5c ba d2 95 a9 3d 52 ec e7 3d 9c d3 d7 bd
       -0.00084191374 0.08280529 0.113243714 -0.10538408
000200 6c 82 9e 3d 1f 06 02 3b 34 e2 8c bd bb 7c 92 3d
       0.0773972 0.0019840074 -0.06879082 0.07152697
000210 07 bb 21 be 7b 89 b9 3d ed c1 49 3e e3 c7 34 be
       -0.15794002 0.090594254 0.19702883 -0.17654376
000220 1a 0a 46 3e c2 e6 13 3d 4b ff 47 3e 90 8d 55 bc
       0.19339791 0.03610874 0.1953098 -0.013034239
000230 22 62 38 be ad 7b 59 3d 9d 87 90 3d 6a ee 34 be
       -0.18006185 0.053096462 0.07057116 -0.17669073
000240 93 f4 b7 bd 5c 8c 35 3d 9c 17 23 be c5 7e f8 bd
       -0.08982196 0.04432331 -0.15926975 -0.12133554
000250 e8 d8 8b 3d 6a 92 57 be 2e 96 82 3d d2 40 0b 3d
       0.06828481 -0.21051946 0.06376301 0.033997364
000260 cc d5 23 be e3 f5 ca bd e5 ee 1e be aa 7b 29 3e
       -0.15999526 -0.099101804 -0.15520819 0.1655108
000270 e0 38 32 be 16 9c 45 be b4 6b 7b bc e0 f1 fe 3d
       -0.17404509 -0.19297823 -0.015345503 0.12448478
000280 ca 20 30 bd 30 18 a3 bc fc 06 66 3c 13 db 15 3c
       -0.04300002 -0.019908994 0.014039751 0.00914647
000290 96 a5 0a be cf a3 9e 3b 96 f0 56 3c 85 eb 47 3e
       -0.13539729 0.004841305 0.013118884 0.19523437
0002a0 12 54 4b be ec 00 a5 3d 86 b8 c6 3c 5d 56 de 3d
       -0.19856289 0.080568165 0.02425791 0.10856316
0002b0 cb 01 0b be 4f 57 17 3d c0 bf 64 3e 2b da 78 3d
       -0.13574903 0.0369485 0.22338772 0.060754936
0002c0 7f 7e fa 3d 9f 20 a6 3d 2f 56 fd 3d f2 b1 45 3d
       0.122311585 0.08111691 0.12369954 0.048265405
0002d0 2f 59 43 3d 32 84 37 3e 14 19 db bd 2d 6c f4 bd
       0.047692474 0.17921522 -0.10698143 -0.119346954
0002e0 55 ab 06 be 59 31 b2 3c 8c d4 b3 3d 51 48 28 3e
       -0.13151295 0.021752046 0.087807745 0.16433837
0002f0 6a 26 4e be b7 09 1c be 72 b3 8f bb 33 5c 10 3e
       -0.20131841 -0.15238081 -0.004385405 0.14097671
000300 cc 1d 68 bd ae 3e 2d 3e ea 9e d5 bd 19 d7 f8 3b
       -0.05666904 0.16918442 -0.10430701 0.007594001
000310 c8 c3 e0 3c b9 76 84 3d 5f 5d ae bc 90 b5 06 be
       0.027437106 0.06467957 -0.021284757 -0.13155198
000320 8e 1f 56 3e ed 51 41 3c 67 df 26 bd b5 22 82 3d
       0.20910475 0.011799318 -0.040740397 0.06354276
000330 bf a6 b2 bc 1b 8f 95 bd ab 0b 2b be 64 98 44 be
       -0.021808026 -0.07302686 -0.1670367 -0.19198757
000340 d1 54 20 bd 01 1f 50 be 20 12 0b bd aa 0a 21 be
       -0.039143387 -0.20324327 -0.033952832 -0.15726724
000350 60 b9 53 be 25 8b 0f be dd 18 d2 3d c6 f6 d6 bd
       -0.20676184 -0.14017923 0.102586485 -0.10496287
000360 e7 f4 0d bd 29 74 e1 3d 33 89 3b be 5e fa 01 be
       -0.034657385 0.11008484 -0.18314056 -0.12693164
000370 a0 45 bd 3d fc 2e c2 3d c8 4c b1 3d ac de 4a 3d
       0.092417955 0.09481618 0.08657223 0.049528763
000380 8a 30 bd 3d a9 a3 48 be bb 05 22 bd a8 89 eb 3c
       0.09237774 -0.19593681 -0.039556246 0.028752163
000390 c7 91 fa bb 56 fe 0c 3e 72 79 26 bd b6 30 8a bd
       -0.0076467725 0.13768896 -0.040643163 -0.06747572
0003a0 60 38 22 3c e4 15 1b 3e cf c8 67 3e 75 4b fe 3c
       0.009901136 0.1514507 0.22635196 0.03104184
0003b0 28 70 8b 3c ea 37 f6 bd 6e 21 4b 3d a3 6f 23 be
       0.017021254 -0.120223835 0.049592428 -0.15960555
0003c0 e3 d7 11 be 9b b6 03 be 39 32 f2 bd f5 f5 1f 3e
       -0.1424251 -0.12862627 -0.118259855 0.15621169
0003d0 aa b7 0e be 37 58 10 3d b9 03 05 bd c3 06 82 3d
       -0.1393725 0.03524038 -0.032474253 0.06348946
0003e0 48 c7 1d 3d 90 c3 35 be 5d 80 12 3c 10 2b 42 bb
       0.038520128 -0.17750382 0.008941737 -0.0029627718
0003f0 bd 20 9a 3c 46 a9 83 bd 1a 44 05 3e a2 85 18 3e
       0.018814439 -0.06428771 0.1301426 0.14894727

sequential_1/conv1d/conv1d_bias f4 [32]
000000 2f d8 20 bc 5c 8b 82 bb f2 2a 48 bc 0d 66 8e 3c
       -0.009817167 -0.003983898 -0.01221727 0.017382646
000010 a0 be f5 3b 96 fd 1d bc 25 f3 77 bb 96 22 20 bc
       0.007499531 -0.009642979 -0.0037834134 -0.009773871
000020 cb f3 2b bc b5 f5 20 bc a2 6a 20 bc f4 79 a0 3c
       -0.0104951365 -0.009824206 -0.009791048 0.019589402
000030 18 02 06 3d 78 c0 2a 3c 4f ce 21 bc 82 fa 88 3c
       0.03271684 0.010421865 -0.009875848 0.016721014
000040 61 b3 8c 3c 85 c5 85 ba c0 35 27 ba 7c 17 ee 3c
       0.017175378 -0.001020596 -0.0006378554 0.029063933
000050 1a 28 9f bb 1d 9b bf bb 17 7f 25 bc 87 8e a0 3a
       -0.0048570754 -0.0058473484 -0.010101101 0.0012249508
000060 fe 81 cf 3c 8e b9 c9 3c 2d 6b 23 bc cd 45 9d 3b
       0.02533054 0.024624612 -0.009974283 0.0047995807
000070 31 cc b4 3c 5c cc 54 3c 9e 5b 8c 3c 4f 99 a1 3c
       0.022070022 0.012988176 0.01713353 0.019726424

sequential_1/dense/MatMul/ReadVariableOp/transpose f4 [1, 32]
000000 df dd 33 3e 99 3f a0 3e 78 3e b6 3c a7 b7 ba be
       0.17565106 0.3129852 0.022246584 -0.3646824
000010 71 33 4a 3e 11 88 4f 3c c4 ea ba 3e 25 06 56 3d
       0.19746186 0.012666718 0.36507237 0.052251954
000020 e9 9e 51 3d 0f 22 d8 3e 26 51 38 3e 8d 14 9a be
       0.05117694 0.42213485 0.17999706 -0.30093804
000030 ea a6 9b be db c5 9b bd 9e 26 b3 3d 9d 16 7b be
       -0.30400783 -0.07606097 0.087476 -0.24520345
000040 df d5 7c 3e 48 55 d0 3e 05 65 aa 3d af 8b 65 3e
       0.2469096 0.40690064 0.08320049 0.22416566
000050 f7 ae a7 3e 3c 58 da 3e 38 37 a4 3b a1 c3 40 3e
       0.32750675 0.42645442 0.0050114654 0.18824627
000060 33 8e a0 be 75 55 45 be 85 2a c8 3c e1 d4 cf 3e
       -0.3135849 -0.1927088 0.024434337 0.405921
000070 2d 44 8d 3e dd e7 c7 be 8e 4c 5d be 4e d4 ea bd
       0.27591076 -0.39044085 -0.21611235 -0.11466275
