app/src/main/assets/noembed11.tflite (tflite, 19120 bytes, 4 tensors)

sequential_2/conv1d_1/conv1d/ExpandDims_1 f4 [32, 1, 1, 128]
00000000: 5c1c 67bd bf81 87be 8d3f 26be 79da 753e
00000010: 9734 443e 1da0 8c3e 2a3c 803d 986d 1ebe
00000020: 1047 6c3e 566a 28bd b876 0cbe 0569 123e
00000030: b79e 863e 045d 313d b84f d53d f192 b83d
00000040: 13d1 833e 1d15 80be 782e d83c 85e6 cdbb
00000050: 4545 88be 5758 8d3e 42a1 c53d a6f3 8e37
00000060: c3e9 abbd 647f 24be f96a fb3d b0a5 84be
00000070: bb3e 52be fb1a 1d3e 5382 65be 9f18 803d
00000080: a72c 103e 8d45 cbbd 46d1 133d 3235 1e3e
00000090: 58c1 843e f246 773d 27f2 6fbe 819b 81be
000000a0: e45c 9f3c 2283 8c3e 9f61 353e 04e1 353e
000000b0: a097 563d 5481 873e 4c2f 3f3e bd48 37be
000000c0: a8e6 913e 9d02 173d c9e6 6cbd 1ff5 1e3e
000000d0: f490 c9bd e6f8 513e 0f72 d5bc 3f78 123d
000000e0: 1c5b 923e a4e6 9dbd f245 023e d48b 103d
000000f0: 328e 3ebe 67a1 e53c dbfc c7bd feb0 853e
00000100: 4e57 683d e15c 113d d065 95bd 11b4 013d
00000110: a11f 693e 5df1 8e3c 24b8 79bd 1944 06be
00000120: cd3f 913e 800b 993e 929b 86be f65b 873e
00000130: 476e 12be 1e3c 8a3d 81d0 81be b932 88bc
00000140: 5fbd 64be c808 8cbd 21b6 bc3d c33c 8b3d
00000150: cd94 d93d 926c d1bd a992 403e 593b a53d
00000160: ebb3 b3bd 81ab 713e 40ee e0ba 584f fbbc
00000170: ab12 213e e3c9 be3d db9e c33d 4427 8e3d
00000180: 535b 4e3e c810 c43d cc4d b6bd 9de2 df3d
00000190: a2af 693e ca2b 103e 973d cf3d cf9f 0e3e
000001a0: 1b85 77be 8a9b aa3d 6cd9 61be ec3f 643e
000001b0: ff6d c83d 30db 323e b416 713d 3767 883e
000001c0: 25bb cb3d 0001 773e 714a cf3d 0cf9 8d3e
000001d0: e256 8dbc 50a3 1ebc 9b0e 34bd a920 7f3e
000001e0: e65b 593e a2cd 98be 3ed2 4e3e 1aab 9abd
000001f0: b88a 24be c999 6fbe 2f31 40be b641 913e
00000200: 537d 0a3d e2bf 90be d129 25be 984e ce3d
00000210: 8795 2dbe 9883 57be e237 afbd f72e e13d
00000220: f25d 573e fbc7 1cbe 1d5b 5bbe e9c5 853e
00000230: f32c 91bd 5360 fabd 5f72 2e3d 2875 863e
00000240: 61ae 46bc 011f 8abe 501a 2d3d 6671 b3bd
00000250: 3608 263e 6402 a03b 5552 0b3e 7190 633e
00000260: 2d2c 8e3e 9b34 adbc 3ffe 08bd 567b 7e3e
00000270: 7850 8ebe 383a 0d3e 6740 063d 9a5f 1b3b
00000280: 9335 fbbd 5e46 833d 7fa8 5e3e 2efb a7bd
00000290: 1f4f bc3d 764e 22bc 82d1 c93d 986b ca3b
000002a0: 5ff8 31be 6764 9cbd 5078 a53d ac15 4fbe
000002b0: 672a 66be ac72 9c3d 48d2 88bd 1ba8 3bbe
000002c0: 2bb9 d2bd b38e 77be 6178 62be 703b 203e
000002d0: e8f7 583d 54fb 6abd 0975 2b3e f2c5 50bd
000002e0: 40a8 203c 9bec 793e 80ab 0fbd ba90 8ebe
000002f0: ecd4 153e f363 c9bc 80af 813e 5bd1 81bd
00000300: 4c55 323c ed49 7cbd e7dc 22be b602 23be
00000310: 7b2e d83d b098 5ebe 0a97 06bd df7a 5ebe
00000320: d841 f5bd 3e66 803e 787b 17bd 476d 73be
00000330: ad60 8fbe ba69 84be 7948 11be b887 213e
00000340: b4b0 c33d dbfa 0abe fc5d 3bbd fcde cbbd
00000350: de91 85bc 6643 323e 5436 4cbe 03b7 94bd
00000360: 5b42 62bd e250 3dbc 708b 92be 84dc 91be
00000370: 4375 b0bd dae0 953d c1a6 463e 2d48 7a3e
00000380: 6986 443e d5c3 7abe f3dc b63d f07f 22bd
00000390: 1833 3bbe ee6b 6cbe c1cb 5e3e bb6b 5f3e
000003a0: 62c5 823e 0b92 7fbd 2a4f 8abe 0b04 41be
000003b0: 5656 993d 72bd 8fbe 1fb1 c23d f056 75be
000003c0: d535 dbbd 71ab 38bd d8bf d33d 9acf fc3d
000003d0: cfaa 7dbe 29d5 31be 2182 6dbb 1f8d 183b
000003e0: 497e 623e 9968 58bd a315 cbbd 864b 643e
000003f0: 9900 01be a9c2 5fbe b533 42be 84e2 6f3d
-0.05642353 -0.26466176 -0.1623518 0.24009122 0.19160686 0.27465907 0.062614754 -0.15471494
0.23073983 -0.041117035 -0.13717163 0.14297874 0.26292965 0.043301597 0.10415596 0.09012402
0.25745448 -0.25016108 0.026389346 -0.0062835836 -0.26615348 0.2760646 0.09649898 1.7041177e-05
-0.08394196 -0.1606422 0.12276263 -0.2590766 -0.20531742 0.15342323 -0.22412996 0.06254696
0.14079534 -0.09925375 0.03608825 0.1544998 0.2592876 0.060370393 -0.23432218 -0.25313953
0.019453473 0.27443796 0.1771302 0.17761618 0.052390695 0.26465857 0.18670386 -0.17898841
0.2849629 0.036867727 -0.05783728 0.15523194 -0.09842101 0.20505103 -0.026055364 0.035759207
0.28585136 -0.07710007 0.12721995 0.0352896 -0.1860893 0.028031064 -0.09765025 0.26111597
0.056723885 0.035488967 -0.0729481 0.031665865 0.22765972 0.017449075 -0.060966626 -0.13111915
0.2836899 0.29891586 -0.26290566 0.26437348 -0.1429988 0.06749748 -0.25354388 -0.016625749
-0.22337864 -0.068376124 0.09214426 0.06798699 0.106240846 -0.10225786 0.18805946 0.0806796
-0.08774551 0.2360058 -0.0017160848 -0.030677482 0.15729778 0.093158506 0.09551784 0.06941083
0.20152025 0.09573513 -0.08901557 0.10931895 0.22820905 0.14079204 0.10119169 0.1392815
-0.2417187 0.08330448 -0.22055596 0.2229001 0.09786605 0.17466426 0.058859542 0.26641247
0.09947804 0.24121475 0.101216204 0.2772907 -0.017253343 -0.009682491 -0.04395924 0.24914803
0.21226463 -0.29844385 0.20197389 -0.07552166 -0.16068542 -0.23398508 -0.18768762 0.28370446
0.033810925 -0.28271395 -0.16129233 0.10073584 -0.16951571 -0.21046293 -0.08555581 0.10995286
0.21031931 -0.15310661 -0.21421476 0.26127556 -0.070886515 -0.12225404 0.04258954 0.26261258
-0.012126536 -0.2697678 0.04226142 -0.087618634 0.1621407 0.0048830975 0.13605626 0.22223069
0.27768078 -0.021143248 -0.033445593 0.24851736 -0.27795768 0.1379174 0.032776263 0.0023708106
-0.12266078 0.06409906 0.21743964 -0.082022056 0.09194779 -0.009906402 0.098544136 0.006177377
-0.17379902 -0.07636338 0.080795884 -0.20223111 -0.22477113 0.076390594 -0.06680733 -0.18325846
-0.10289224 -0.24175529 -0.22116233 0.15647674 0.052970797 -0.05736859 0.16743864 -0.050970025
0.009805739 0.24406664 -0.035075665 -0.27844793 0.14632004 -0.024583792 0.25329208 -0.063387595
0.010884594 -0.06159394 -0.1590458 -0.15919003 0.105557404 -0.21737933 -0.032858886 -0.21726559
-0.11975449 0.25078005 -0.036982983 -0.23772155 -0.28003445 -0.25861913 -0.14187802 0.15774429
0.09555188 -0.13572256 -0.045743927 -0.0995464 -0.016304906 0.17408523 -0.199426 -0.07261469
-0.055239063 -0.0115549285 -0.28622007 -0.28488553 -0.08616116 0.07318278 0.19399549 0.24441595
0.19191898 -0.24488766 0.089288615 -0.039672792 -0.1828121 -0.23088047 0.21757413 0.2181844
0.25541216 -0.062395137 -0.27013522 -0.18849199 0.074871704 -0.28074223 0.095064394 -0.23958945
-0.10703627 -0.045085374 0.10339326 0.12344284 -0.2477219 -0.1736647 -0.0036240893 0.0023277474
0.22118486 -0.052834127 -0.09916236 0.22294435 -0.12597884 -0.218516 -0.18965037 0.05856563

sequential_2/conv1d_1/conv1d_bias f4 [32]
00000000: 66ff c83b 9334 7b3d e451 ba3d b052 bf3d
00000010: 53c1 f0bc 6dce 79bb ac83 4d3c c830 63bd
00000020: 4198 f43d d2f1 a73d 591f 0c3d fe6f 883d
00000030: 4aea 6a3d f252 df3c e599 1c3d 6e10 82bc
00000040: b4b6 c53d 8560 0dbd e385 5b3d fe03 b03d
00000050: 3fe7 813d b28b e23d ff12 dc3d 8822 993a
00000060: 0cf4 1e3a cb7d 673d 1ff2 a03d 5b7d 50bc
00000070: 5667 b7bb bd8b eb3d 026e 303d 3f4d ed3c
0.0061339615 0.061329436 0.09097651 0.09341943 -0.02938906 -0.0038117424 0.0125436 -0.055466443
0.11943103 0.082004204 0.034209583 0.06661986 0.05735234 0.027261231 0.038232703 -0.015876975
0.096539885 -0.034515876 0.05359448 0.085945114 0.06342935 0.11061801 0.10745811 0.0011683265
0.00060635875 0.05651645 0.07858681 -0.0127252 -0.0055970354 0.11501262 0.04307366 0.028967498

sequential_2/dense_1/MatMul/ReadVariableOp/transpose f4 [3, 32]
00000000: fb52 3bbe 75d6 f6bd efb6 00bf 137d 09bf
00000010: c46d e63e 1dd4 b83e 22b5 503e cad9 b13e
00000020: 3b76 41be af05 8dbe b35c 723e ee26 dabe
00000030: 083f 003e 9d75 bfbe 20fb 6c3e 68a2 013b
00000040: a819 8dbe a1cc 9e3d 9a47 f8be 0df7 583e
00000050: 9a49 433e 30a3 abbe 56bb c3be 7bfb 97be
00000060: 640f c73e 743d d6be 9347 483d 6f22 57bd
00000070: d42e 543d 23bd 02bf 5a14 ba3e be73 ab3e
00000080: bc80 913e 85f5 08be 825a 7b3d 6ac6 4d3c
00000090: e341 f2bb b48c 64be 6c7f 133e 8f82 e33d
000000a0: 10f6 84be 2a5a edbd 8ab8 a1be a165 633e
000000b0: 9835 86be b909 743e 5262 35be 3fad 933e
000000c0: 47d8 cfbe 08cd b93e 8bc1 ab3e f652 0abf
000000d0: d5ab b3be e0e6 b5bc 0ec2 bfbd 22c3 cc3e
000000e0: 0b7b cabe 3143 943e eab4 d2be 691b a63d
000000f0: f345 ef3e 77e4 80bd d6e8 a3be 7552 ebbe
00000100: 0241 30be f306 fcbe b1c8 03bf b27c a93e
00000110: 845c 8ebe 85ad 9cbe f990 bbbe 9dea 16be
00000120: 71a7 a1be 2d44 e23e f055 e4be 2fc3 8f3c
00000130: 246a bdbe 9e44 9cbd d882 b6be 1af4 85be
00000140: 1aba cf3e fc54 3cbe b05a 23be f162 893d
00000150: dfa9 11be 6ef9 8fbe 63a6 e6be d617 c53e
00000160: 2391 b1be 2fb9 6b3e 753a d8bd f471 d93e
00000170: 6106 2cbe 1070 c7be 9890 cfbe acaa bdbe
-0.18293373 -0.12052623 -0.50279135 -0.53706473 0.4500562 0.3609933 0.20381597 0.34736472
-0.18892758 -0.275434 0.23668174 -0.42607826 0.12524045 -0.3739442 0.23142672 0.001978064
-0.27558637 0.077538736 -0.48492128 0.21187992 0.19071046 -0.3352294 -0.38228863 -0.29684052
0.3887893 -0.4184376 0.048896383 -0.052523073 0.05180247 -0.5106985 0.36343652 0.33486742
0.2841853 -0.13374908 0.06136561 0.012559513 -0.007393108 -0.22319299 0.14404076 0.111088865
-0.2596898 -0.11589463 -0.31586105 0.22206737 -0.26212764 0.23831834 -0.17713287 0.28843114
-0.40594694 0.3628924 0.335461 -0.5403284 -0.35092035 -0.022204816 -0.09363185 0.39992625
-0.39547 0.28957513 -0.4115365 0.08110697 0.46733055 -0.06293576 -0.32013577 -0.45961347
-0.17212299 -0.49224052 -0.51478106 0.33102947 -0.2780496 -0.30601135 -0.36634043 -0.14737935
-0.3157306 0.4419264 -0.44596815 0.017549125 -0.3699504 -0.07630275 -0.356467 -0.26162797
0.40571672 -0.18391794 -0.15952563 0.06708325 -0.14224957 -0.28119987 -0.45048818 0.38494748
-0.34681043 0.2301986 -0.10558025 0.42469752 -0.16799308 -0.38952684 -0.40540004 -0.37044275

sequential_2/dense_1/MatMul_bias f4 [3]
00000000: e3ee c6bd eb02 d5bd e949 673c
-0.09713533 -0.10400947 0.014116743
